Learning Rate: 0.0001
Weight Decay: 0.0001
Epochs: 20
Batch Size: 32
AE(
  (encoder): Sequential(
    (linear1): Linear(in_features=1024, out_features=512, bias=True)
    (relu1): ReLU()
    (batchnorm1): BatchNorm1d(512, eps=1e-05, momentum=0.1, affine=True, track_running_stats=True)
    (dropout1): Dropout(p=0.4, inplace=False)
    (linear2): Linear(in_features=512, out_features=256, bias=True)
    (relu2): ReLU()
    (batchnorm2): BatchNorm1d(256, eps=1e-05, momentum=0.1, affine=True, track_running_stats=True)
    (dropout2): Dropout(p=0.4, inplace=False)
    (linear3): Linear(in_features=256, out_features=128, bias=True)
    (relu3): ReLU()
    (batchnorm3): BatchNorm1d(128, eps=1e-05, momentum=0.1, affine=True, track_running_stats=True)
    (dropout3): Dropout(p=0.4, inplace=False)
    (linear4): Linear(in_features=128, out_features=64, bias=True)
    (relu4): ReLU()
    (batchnorm4): BatchNorm1d(64, eps=1e-05, momentum=0.1, affine=True, track_running_stats=True)
    (dropout4): Dropout(p=0.4, inplace=False)
  )
  (decoder): Sequential(
    (linear5): Linear(in_features=64, out_features=128, bias=True)
    (relu5): ReLU()
    (batchnorm5): BatchNorm1d(128, eps=1e-05, momentum=0.1, affine=True, track_running_stats=True)
    (linear6): Linear(in_features=128, out_features=256, bias=True)
    (relu6): ReLU()
    (batchnorm6): BatchNorm1d(256, eps=1e-05, momentum=0.1, affine=True, track_running_stats=True)
    (linear7): Linear(in_features=256, out_features=512, bias=True)
    (relu7): ReLU()
    (batchnorm7): BatchNorm1d(512, eps=1e-05, momentum=0.1, affine=True, track_running_stats=True)
    (linear8): Linear(in_features=512, out_features=1024, bias=True)
    (relu8): ReLU()
    (batchnorm8): BatchNorm1d(1024, eps=1e-05, momentum=0.1, affine=True, track_running_stats=True)
  )
)
SGD (
Parameter Group 0
    dampening: 0
    foreach: None
    lr: 0.0001
    maximize: False
    momentum: 0
    nesterov: False
    weight_decay: 0.0001
)

N Trail: 0
Epoch 1error normal: 411.366
test AUC: 60.14, best AUC: 60.14
Epoch 2error normal: 596.812
test AUC: 57.19, best AUC: 60.14
Epoch 3error normal: 610.923
test AUC: 51.40, best AUC: 60.14
…
