Learning Rate: 0.0004
Weight Decay: 0.0001
Epochs: 20
Batch Size: 128
AE(
  (encoder): Sequential(
    (linear1): Linear(in_features=2048, out_features=1024, bias=True)
    (batchnorm1): BatchNorm1d(1024, eps=1e-05, momentum=0.1, affine=True, track_running_stats=True)
    (relu1): ReLU()
    (linear2): Linear(in_features=1024, out_features=512, bias=True)
    (batchnorm2): BatchNorm1d(512, eps=1e-05, momentum=0.1, affine=True, track_running_stats=True)
    (relu2): ReLU()
    (linear3): Linear(in_features=512, out_features=256, bias=True)
    (batchnorm3): BatchNorm1d(256, eps=1e-05, momentum=0.1, affine=True, track_running_stats=True)
    (relu3): ReLU()
    (linear4): Linear(in_features=256, out_features=128, bias=True)
    (batchnorm4): BatchNorm1d(128, eps=1e-05, momentum=0.1, affine=True, track_running_stats=True)
    (relu4): ReLU()
  )
  (decoder): Sequential(
    (linear5): Linear(in_features=128, out_features=248, bias=True)
    (batchnorm5): BatchNorm1d(248, eps=1e-05, momentum=0.1, affine=True, track_running_stats=True)
    (relu5): ReLU()
    (linear6): Linear(in_features=248, out_features=512, bias=True)
    (batchnorm6): BatchNorm1d(512, eps=1e-05, momentum=0.1, affine=True, track_running_stats=True)
    (relu6): ReLU()
    (linear7): Linear(in_features=512, out_features=1024, bias=True)
    (batchnorm7): BatchNorm1d(1024, eps=1e-05, momentum=0.1, affine=True, track_running_stats=True)
    (relu7): ReLU()
    (linear8): Linear(in_features=1024, out_features=2048, bias=True)
    (batchnorm8): BatchNorm1d(2048, eps=1e-05, momentum=0.1, affine=True, track_running_stats=True)
    (relu8): ReLU()
  )
)
Adam (
Parameter Group 0
    amsgrad: False
    betas: (0.9, 0.999)
    capturable: False
    eps: 1e-08
    foreach: None
    lr: 0.0004
    maximize: False
    weight_decay: 0.0001
)
Epoch 1
Train Loss: 0.3193109897145035
Epoch 2
Train Loss: 0.013923713290884899
Epoch 3
Train Loss: 0.012984241506315957
…
